Trained Weights/Task3-2/sitstand_top-nn-classifier-tensorflow-lite-int8-quantized-model.lite (tflite, 12464 bytes, 4 tensors)

sequential/conv2d/Conv2D i1 [8, 3, 3, 1]
-88 55 -83 107 127 -40 92 122
125 18 -6 -59 -76 32 2 12
-127 -22 -1 -100 -84 109 -127 -98
-121 97 -45 -65 112 0 125 127
-48 27 99 7 37 73 -49 82
127 -37 57 48 -73 127 69 88
75 55 21 -22 -24 127 -52 -41
-75 -44 10 9 127 75 -41 -15
-69 -34 127 106 -106 -15 98 -26
00000000: a837 ad6b 7fd8 5c7a 7d12 fac5 b420 020c
00000010: 81ea ff9c ac6d 819e 8761 d3bf 7000 7d7f
00000020: d01b 6307 2549 cf52 7fdb 3930 b77f 4558
00000030: 4b37 15ea e87f ccd7 b5d4 0a09 7f4b d7f1
00000040: bbde 7f6a 96f1 62e6

sequential/conv2d_1/Conv2D i1 [16, 3, 3, 8]
-15 -28 -46 125 22 -39 110 5
114 -14 -80 11 26 -61 88 2
69 -57 65 72 55 80 106 52
126 -26 -55 115 53 1 -26 99
37 7 83 38 10 -15 -18 -42
-56 36 -84 48 96 64 26 63
50 0 -79 127 98 -29 54 91
52 9 -50 26 50 -24 -94 -57
-84 -3 -75 26 -19 42 13 106
-17 73 -67 -31 24 3 101 30
-26 -41 -34 52 -13 68 46 11
90 72 27 112 99 16 -42 43
119 -78 -9 99 81 71 36 49
3 49 86 45 68 38 -14 -2
16 -18 87 30 33 -10 111 127
104 -10 54 93 -29 48 -54 -59
-1 52 -28 26 63 -25 -54 51
-16 27 8 79 104 3 112 37
-44 58 -68 -46 -18 75 -27 -112
110 -6 -25 109 42 -32 -21 74
10 -70 -38 -51 35 19 73 51
95 56 84 124 45 110 15 -66
102 -28 -55 22 69 -6 4 43
82 -15 58 113 47 76 -24 113
52 43 72 -3 68 127 86 -29
82 7 -16 81 81 122 22 -5
66 86 58 0 -12 -4 79 112
-24 29 8 43 12 118 36 109
5 -20 25 119 91 118 104 -8
35 -84 47 50 0 100 113 -35
-5 -77 -30 102 90 5 0 50
20 80 87 42 -14 38 8 -36
00000000: f1e4 d27d 16d9 6e05 72f2 b00b 1ac3 5802
00000010: 45c7 4148 3750 6a34 7ee6 c973 3501 e663
00000020: 2507 5326 0af1 eed6 c824 ac30 6040 1a3f
00000030: 3200 b17f 62e3 365b 3409 ce1a 32e8 a2c7
00000040: acfd b51a ed2a 0d6a ef49 bde1 1803 651e
00000050: e6d7 de34 f344 2e0b 5a48 1b70 6310 d62b
00000060: 77b2 f763 5147 2431 0331 562d 4426 f2fe
00000070: 10ee 571e 21f6 6f7f 68f6 365d e330 cac5
00000080: ff34 e41a 3fe7 ca33 f01b 084f 6803 7025
00000090: d43a bcd2 ee4b e590 6efa e76d 2ae0 eb4a
000000a0: 0aba dacd 2313 4933 5f38 547c 2d6e 0fbe
000000b0: 66e4 c916 45fa 042b 52f1 3a71 2f4c e871
000000c0: 342b 48fd 447f 56e3 5207 f051 517a 16fb
000000d0: 4256 3a00 f4fc 4f70 e81d 082b 0c76 246d
000000e0: 05ec 1977 5b76 68f8 23ac 2f32 0064 71dd
000000f0: fbb3 e266 5a05 0032 1450 572a f226 08dc

sequential/conv2d_2/Conv2D i1 [32, 3, 3, 16]
6 43 72 49 43 -5 57 88
32 -37 3 70 -47 102 34 32
100 88 10 -16 -22 -29 48 109
48 127 -3 113 5 16 -119 -55
50 -46 -18 1 -46 36 -29 -17
-68 68 42 9 -16 -57 -100 68
-24 -13 -1 75 21 60 -70 14
-71 24 62 78 -20 29 -85 41
9 -69 -38 87 -58 105 35 -34
-14 71 56 11 7 5 -55 50
-23 -58 -53 -55 -78 -33 -96 -28
46 72 -43 -72 22 -49 3 7
73 -35 42 50 -48 -51 -36 -24
-77 -35 -44 23 34 -46 49 78
9 18 -38 -83 -45 -31 -38 30
83 65 123 55 -77 -83 25 60
-78 -22 -73 -9 -35 20 18 -93
97 18 -50 -84 -75 26 -57 1
-7 -16 -110 30 -33 -45 -46 -65
-45 49 -56 -6 24 8 -35 -33
32 -68 18 -54 -12 76 44 24
15 74 -44 -43 13 15 -73 -11
-25 56 18 -71 -67 65 -27 -36
-49 10 -76 45 -42 -9 -81 67
-110 21 27 -55 31 -104 -15 -46
-28 -127 52 10 -26 -76 6 89
40 7 55 -8 78 -8 -7 -50
-92 -14 -43 -101 30 -58 83 49
55 79 78 -62 27 -53 57 -68
16 21 69 -3 -60 -5 -18 59
57 -7 -2 -37 -7 -15 44 51
-17 -59 -36 -44 -50 -86 18 -17
00000000: 062b 4831 2bfb 3958 20db 0346 d166 2220
00000010: 6458 0af0 eae3 306d 307f fd71 0510 89c9
00000020: 32d2 ee01 d224 e3ef bc44 2a09 f0c7 9c44
00000030: e8f3 ff4b 153c ba0e b918 3e4e ec1d ab29
00000040: 09bb da57 c669 23de f247 380b 0705 c932
00000050: e9c6 cbc9 b2df a0e4 2e48 d5b8 16cf 0307
00000060: 49dd 2a32 d0cd dce8 b3dd d417 22d2 314e
00000070: 0912 daad d3e1 da1e 5341 7b37 b3ad 193c
00000080: b2ea b7f7 dd14 12a3 6112 ceac b51a c701
00000090: f9f0 921e dfd3 d2bf d331 c8fa 1808 dddf
000000a0: 20bc 12ca f44c 2c18 0f4a d4d5 0d0f b7f5
000000b0: e738 12b9 bd41 e5dc cf0a b42d d6f7 af43
000000c0: 9215 1bc9 1f98 f1d2 e481 340a e6b4 0659
000000d0: 2807 37f8 4ef8 f9ce a4f2 d59b 1ec6 5331
000000e0: 374f 4ec2 1bcb 39bc 1015 45fd c4fb ee3b
000000f0: 39f9 fedb f9f1 2c33 efc5 dcd4 ceaa 12ef

sequential/y_pred/MatMul i1 [3, 512] scale=0.0018857137 zero_point=0
0.05091427 0.02074285 -0.037714273 0.011314282 -0.054685697 -0.13577138 0.02639999 -0.07165712
0.016971422 -0.028285705 0.0 0.022628564 -0.05091427 -0.032057133 0.05091427 0.005657141
0.013199995 -0.12257139 -0.028285705 -0.13199995 -0.032057133 -0.086742826 -0.0414857 0.09428568
-0.018857136 0.05091427 0.02639999 -0.0829714 -0.013199995 -0.016971422 0.015085709 0.022628564
0.09805711 -0.06788569 0.05091427 0.013199995 0.04714284 -0.005657141 -0.043371413 0.08485711
-0.14897138 -0.0414857 -0.14519995 -0.033942845 0.08108569 -0.018857136 -0.14897138 -0.10748568
-0.16405709 0.04525713 -0.11502853 -0.111257106 -0.11879996 0.013199995 -0.10182854 0.049028557
-0.11691425 -0.14142853 0.054685697 -0.14519995 -0.08108569 -0.0037714273 0.06977141 -0.054685697
-0.0829714 -0.088628545 0.08108569 0.060342837 0.064114265 -0.13199995 0.09428568 0.11314282
-0.12257139 -0.05279998 0.06222855 -0.1791428 -0.05657141 0.09805711 -0.0075428546 -0.12822853
-0.11502853 -0.028285705 -0.12257139 -0.14331424 -0.109371394 0.016971422 -0.0075428546 0.016971422
-0.07731426 -0.06222855 0.11314282 -0.032057133 -0.018857136 0.054685697 0.028285705 -0.064114265
0.060342837 -0.022628564 -0.06788569 0.07354283 -0.009428568 0.08485711 0.12257139 -0.011314282
0.060342837 -0.02639999 0.120685674 0.05657141 -0.02639999 -0.04525713 0.015085709 -0.07731426
-0.099942826 -0.009428568 -0.07354283 -0.03959999 0.04714284 0.06977141 -0.058457125 -0.10748568
0.011314282 -0.058457125 0.06599998 -0.07165712 0.030171419 -0.07354283 0.037714273 -0.02639999
-0.11502853 -0.09051426 -0.03959999 0.030171419 -0.088628545 0.05091427 0.04525713 -0.099942826
0.08485711 -0.033942845 0.10182854 -0.028285705 -0.04714284 -0.08485711 -0.08485711 0.06977141
-0.05279998 0.064114265 0.009428568 0.058457125 -0.06788569 -0.088628545 0.060342837 -0.02074285
0.07731426 0.043371413 -0.064114265 -0.07919998 0.099942826 -0.033942845 -0.03582856 0.10182854
-0.17725709 0.04525713 0.05091427 0.030171419 0.10748568 -0.09051426 0.04525713 -0.04714284
-0.011314282 -0.009428568 -0.018857136 -0.05657141 -0.033942845 -0.016971422 -0.09805711 0.06977141
-0.15651423 0.07165712 0.04525713 -0.09239997 0.033942845 0.05091427 -0.06788569 0.018857136
-0.054685697 0.11879996 0.06599998 -0.0037714273 0.02074285 -0.02639999 0.005657141 -0.10748568
-0.09239997 0.099942826 0.11691425 -0.005657141 -0.054685697 0.049028557 0.12257139 -0.015085709
0.07354283 0.05279998 -0.15462852 -0.011314282 -0.075428545 -0.086742826 -0.15462852 -0.05091427
-0.11691425 -0.0414857 0.14897138 -0.011314282 -0.075428545 -0.032057133 -0.11879996 -0.15085709
-0.022628564 0.12257139 -0.015085709 0.16782852 0.013199995 0.015085709 -0.005657141 -0.032057133
0.0037714273 0.13577138 0.13765709 0.060342837 -0.03959999 -0.109371394 0.054685697 -0.04714284
0.011314282 -0.03582856 -0.17159994 -0.04525713 -0.05279998 0.07919998 0.02639999 0.02074285
0.06222855 0.13388567 0.10748568 -0.05657141 0.096171394 -0.022628564 0.16405709 0.030171419
0.12822853 0.11314282 0.120685674 -0.028285705 -0.030171419 0.058457125 -0.075428545 -0.016971422
00000000: 1b0b ec06 e3b8 0eda 09f1 000c e5ef 1b03
00000010: 07bf f1ba efd2 ea32 f61b 0ed4 f9f7 080c
00000020: 34dc 1b07 19fd e92d b1ea b3ee 2bf6 b1c7
00000030: a918 c3c5 c107 ca1a c2b5 1db3 d5fe 25e3
00000040: d4d1 2b20 22ba 323c bfe4 21a1 e234 fcbc
00000050: c3f1 bfb4 c609 fc09 d7df 3cef f61d 0fde
00000060: 20f4 dc27 fb2d 41fa 20f2 401e f2e8 08d7
00000070: cbfb d9eb 1925 e1c7 06e1 23da 10d9 14f2
00000080: c3d0 eb10 d11b 18cb 2dee 36f1 e7d3 d325
00000090: e422 051f dcd1 20f5 2917 ded6 35ee ed36
000000a0: a218 1b10 39d0 18e7 fafb f6e2 eef7 cc25
000000b0: ad26 18cf 121b dc0a e33f 23fe 0bf2 03c7
000000c0: cf35 3efd e31a 41f8 271c aefa d8d2 aee5
000000d0: c2ea 4ffa d8ef c1b0 f441 f859 0708 fdef
000000e0: 0248 4920 ebc6 1de7 06ed a5e8 e42a 0e0b
000000f0: 2147 39e2 33f4 5710 443c 40f1 f01f d8f7
