Trained Weights/Task3-2/sitstand_top-nn-classifier-tensorflow-lite-float32-model.lite (tflite, 32660 bytes, 8 tensors)

y_pred/bias f4 [3]
00000000: c987 733b 2b68 adbc 46b2 b93c
0.0037159792 -0.021167835 0.022668015

conv2d_2/bias f4 [32]
00000000: ee61 043d 3fbd b53b d406 4cbc 262b d5bb
00000010: 60d2 5cb6 9e34 023c 7799 a93b 5d89 2b3d
00000020: f928 7f3d 0881 1fbd 2dab 143d 0f6b 623d
00000030: a4a8 27bc 883e 83bc eb09 da3c 2098 3ebc
00000040: 183b 083c 44d5 4a3c 9da9 c03c 9a91 8e3c
00000050: 751f b23b 7a99 b5bb 171c fabc d2af 593d
00000060: 55e6 39bc ff71 3c3c 6d14 153d 6b36 c63b
00000070: 12a7 abbc 1ae9 23bd 0f42 53bc 9dd4 bbbc
0.032319956 0.0055462415 -0.0124528 -0.006505388 -3.290501e-06 0.007947115 0.005175765 0.041879047
0.062294934 -0.038941413 0.03629606 0.05527788 -0.010233078 -0.016021028 0.026616057 -0.011632949
0.00831487 0.012379948 0.023518378 0.017403413 0.005435879 -0.0055419775 -0.030530972 0.05314619
-0.011346419 0.011501788 0.036396433 0.0060489676 -0.020953689 -0.040017225 -0.012894168 -0.02292853

conv2d_1/bias f4 [16]
00000000: 3e51 c33c 5e97 5d3c a14a 20bc f197 25bd
00000010: 98d4 543d d3f8 7abd 10d3 8fbd a4d2 53bd
00000020: e255 9c3d ec97 3f3d d2df bf3c 2ef9 15ba
00000030: 6c04 bcbc 4894 b1bc 0c31 05bd 7ba5 8d3d
0.02384245 0.013524858 -0.009783418 -0.040428106 0.051960558 -0.061272454 -0.07022679 -0.051714554
0.07633568 0.046775743 0.023422156 -0.00057210296 -0.022951327 -0.021677151 -0.032517478 0.069163285

conv2d/bias f4 [8]
00000000: 35fe cd3c 0000 0000 9a17 c1bb 538b 3fbd
00000010: cc46 70bd c84c 7fbd 5854 573c fc2b 643d
0.02514563 0.0 -0.005892706 -0.04676373 -0.058661267 -0.062329084 0.013142668 0.05570601

sequential/y_pred/MatMul f4 [3, 512]
00000000: 2c07 4f3d 8764 a53c 0bd4 19bd dd11 3b3c
00000010: d2c1 5fbd bbb2 0bbe 03c3 d53c c8d9 92bd
00000020: 5ca8 8d3c 64b0 eebc 8b9e 65ba f1ed b33c
00000030: 072b 54bd 41b2 00bd 7719 533d fdde ab3b
00000040: 5dc4 553c f202 fbbd 60c2 e9bc ddb9 07be
00000050: 0482 01bd 1798 b1bd 4a12 27bd 71a4 c03d
00000060: df5e 94bc cdb1 513d 3793 d53c 471f a8bd
00000070: 4727 63bc e5c9 8abc ed06 7a3c c85d bb3c
00000080: cb75 c83d e022 8abd 7ceb 4e3d fae9 603c
00000090: fac7 413d 9acb afbb 0c85 2ebd c70c ac3d
000000a0: 6efa 18be 0f5d 2bbd 5b49 14be 4e3f 0abd
000000b0: 3b88 a63d 890e 9fbc e196 18be 1de5 dabd
000000c0: c2a8 28be 4870 373d 0ffb e9bd 2365 e2bd
000000d0: c6e9 f1bd a9c7 633c 47b7 cebd b59f 483d
000000e0: 41ed f0bd 165e 11be ad2b 603d 5956 14be
000000f0: c5b9 a4bd d3b9 92bb a430 8e3d 8680 62bd
00000100: 30bd a9bd df92 b4bd 4df8 a73d a353 773d
00000110: 75b0 813d 9c04 08be 81ef c23d 1ed4 e73d
00000120: 6ef4 fbbd dea3 58bd e678 7c3d 395d 37be
00000130: 8742 65bd 2c4e c83d 1eb5 ecbb 8af8 02be
00000140: 9cf7 eabd a3d5 e5bc 39c7 fcbd 0d99 12be
00000150: a0a7 e1bd 1489 923c 230d ffbb a218 873c
00000160: 9aef 9ebd 4f11 80bd f64b e63d a6db 02bd
00000170: 4473 9dbc 32d7 5c3d 9449 e73c 9078 84bd
00000180: f86c 733d 79fa b4bc e889 89bd fb75 953d
00000190: f021 17bc ab2f af3d dd37 fa3d 8440 3ebc
000001a0: 8abd 743d 3382 d6bc 3798 f63d 5891 693d
000001b0: b45e d1bc b28c 36bd d727 823c f2b0 9dbd
000001c0: 9842 cebd 2643 26bc 4e7f 97bd d683 25bd
000001d0: a225 433d e5f4 8e3d b7d8 6bbd bb38 dcbd
000001e0: eef3 413c 0564 6cbd 5c19 883d 0871 94bd
000001f0: e70e fa3c aabe 94bd 4ef2 1c3d 9e99 d2bc
00000200: 613f eabd adf6 babd e7e2 1fbd af8e f53c
00000210: 76f5 b3bd 275a 4f3d 3568 373d d903 cebd
00000220: c827 af3d a0d1 09bd a10a d03d ee1b e4bc
00000230: e452 41bd 135d aebd 372f adbd a6da 8f3d
00000240: a878 5abd 68d7 833d 647e 163c 0bef 723d
00000250: 7e3f 89bd 9adb b3bd 3818 773d a9bd a7bc
00000260: bb83 9d3d 27b3 2f3d 33f2 83bd 4a5a a2bd
00000270: 6047 ce3d 10ab 0abd 5f0c 13bd c14b cf3d
00000280: 638f 35be a9c1 3b3d ed2f 503d 048c f33c
00000290: 2d5a dc3d 9248 b9bd 7d29 3a3d d306 43bd
000002a0: 0b9d 39bc cf81 28bc eadd 93bc 6364 64bd
000002b0: fb93 0ebd c4f2 83bc a767 c7bd b52b 903d
000002c0: 0bd2 20be ff88 943d ae9b 3a3d 14ae bcbd
000002d0: 2ae7 073d 1633 543d 357f 8cbd b41c 9b3c
000002e0: 375e 61bd cb70 f33d 3b79 873d e573 41bb
000002f0: 3345 af3c 23dc d8bc 8e64 b23b 8f37 dcbd
00000300: b950 bdbd 244c cd3d 5884 f03d 722f acbb
00000310: 5146 62bd 4f03 4c3d 3341 fa3d cda1 7fbc
00000320: 91ac 953d 43b8 583d 9088 1ebe 0820 3fbc
00000330: fa9a 9abd fc92 b2bd ef11 1ebe 6716 4ebd
00000340: 4fd1 edbd 01ec 2bbd e747 183e 057f 38bc
00000350: 0efc 9bbd 8eea 04bd 112b f4bd 5215 1abe
00000360: 24b8 bebc 4fe7 f93d ac03 6abc 79cb 2b3e
00000370: 51bc 5f3c c8b4 6a3c c85b babb 78f5 06bd
00000380: 8d37 8b3b d9f6 0b3e 21a1 0c3e 9920 763d
00000390: ca4b 25bd e898 e0bd b018 5f3d cafb 40bd
000003a0: 5b0e 423c ff1a 0fbd 92cd 2fbe b552 37bd
000003b0: 7c69 58bd 125a a33d e07c d23c e34b a33c
000003c0: a4c4 7e3d 1745 083e 6288 dc3d 5d8f 67bd
000003d0: 54ea c53d dfe8 bfbc 81b1 283e 3ae7 fa3c
000003e0: f0fb 023e b3ac e73d 8b79 f73d 97f4 eebc
000003f0: 1752 f7bc 4968 723d f0b7 9abd 0976 92bc
0.05054395 0.020189537 -0.037555736 0.011417833 -0.0546282 -0.13642399 0.026093965 -0.07170445
0.017292194 -0.029136844 -0.00087592815 0.021964045 -0.051798847 -0.031419996 0.051537957 0.005245088
0.013047305 -0.12256421 -0.028535068 -0.13254495 -0.031618133 -0.08671587 -0.040788926 0.09406365
-0.018111644 0.051194955 0.026071174 -0.08209091 -0.013864345 -0.016941974 0.01526044 0.022871867
0.09788092 -0.06744933 0.050517544 0.013727659 0.047309853 -0.0053648474 -0.042607352 0.084008746
-0.14939281 -0.041836794 -0.14481108 -0.03375178 0.08131453 -0.01941611 -0.14901306 -0.10688231
-0.16470626 0.044784814 -0.11424839 -0.110544465 -0.11812167 0.013902583 -0.10093551 0.048980433
-0.117640026 -0.14196047 0.054729152 -0.14486064 -0.08043245 -0.0044777184 0.06942871 -0.05529835
-0.08288038 -0.08817076 0.082016565 0.060382497 0.06332485 -0.13283008 0.09518338 0.11319755
-0.12302481 -0.05289065 0.061638735 -0.17906655 -0.05597165 0.09780535 -0.0072237393 -0.12790123
-0.11473009 -0.028055971 -0.12342686 -0.14316197 -0.110183 0.01788763 -0.0077835484 0.016491238
-0.07760544 -0.06253301 0.11244957 -0.031947754 -0.019220002 0.053916164 0.028233327 -0.06468308
0.059430093 -0.02209209 -0.06715757 0.072978936 -0.0092244 0.08554014 0.12217686 -0.011612061
0.05975107 -0.02618513 0.120407514 0.057023376 -0.025557853 -0.04456777 0.015888138 -0.07699765
-0.100712955 -0.010147845 -0.07397328 -0.04040893 0.04764331 0.06980304 -0.057579722 -0.10753008
0.0118379425 -0.057712574 0.06645462 -0.072481215 0.030524684 -0.07262929 0.038317017 -0.025708016
-0.1143787 -0.09129081 -0.03903475 0.029975263 -0.08787052 0.050623085 0.044777114 -0.10059328
0.085525095 -0.03364718 0.10158277 -0.02784535 -0.04719819 -0.08513846 -0.08456271 0.07024126
-0.053337723 0.0643757 0.009185407 0.05931 -0.06701563 -0.0878212 0.06032583 -0.02047618
0.07691141 0.042895462 -0.0644268 -0.079273775 0.100722075 -0.033854544 -0.03590047 0.10121871
-0.17730479 0.045838986 0.050826956 0.02972985 0.10759387 -0.09047045 0.045449723 -0.04761393
-0.011328946 -0.010284855 -0.018050153 -0.0557598 -0.034809094 -0.01610697 -0.09736567 0.070395865
-0.15705125 0.072526924 0.045558624 -0.0921289 0.03317944 0.05180653 -0.068602 0.018934585
-0.05502149 0.11886748 0.0661492 -0.0029518541 0.021395301 -0.026472157 0.005444116 -0.107527845
-0.09243912 0.10024288 0.117439926 -0.0052546794 -0.05524284 0.049807843 0.12219467 -0.015602541
0.07308305 0.0529101 -0.15481782 -0.011665352 -0.07549091 -0.08719441 -0.15436529 -0.050314333
-0.11612188 -0.041973118 0.14871179 -0.011260753 -0.07616435 -0.03245025 -0.11922277 -0.15047196
-0.023281164 0.12202322 -0.014283102 0.16776837 0.013655738 0.014325328 -0.0056872107 -0.03294894
0.0042485655 0.13668384 0.13733341 0.06008968 -0.04035548 -0.109666646 0.054466903 -0.047115125
0.011844243 -0.034937855 -0.17168263 -0.04475661 -0.052834973 0.07976164 0.02569431 0.019933647
0.06219925 0.13307606 0.107682005 -0.056533206 0.09663835 -0.023426471 0.16473962 0.030627836
0.12791419 0.11312237 0.12083729 -0.029169364 -0.03019051 0.059181485 -0.075546145 -0.01787855

sequential/conv2d/Conv2D f4 [8, 3, 3, 1]
00000000: d1dd 3cbe 5d29 eb3d 54fb 31be 5023 653e
00000010: 21bd 873e ee55 abbd f312 443e 03fa 813e
00000020: 7768 853e b741 173d a8b1 54bc 1ceb f3bd
00000030: b8f6 1bbe 28c7 853d e02d 603b d8ad ca3c
00000040: d1b2 82be 803b 36bd 50da 02bb 5ec9 5cbe
00000050: e6b8 39be e776 713e 99a0 8cbe 0103 59be
00000060: f16f 86be b454 563e 60a7 c7bd 2e17 36be
00000070: 98f3 9c3e dba0 8d3a 447d b03e dea3 b23e
00000080: 150e 07be 3ef5 983d 58e3 8a3e 4894 a23c
00000090: c65f c13d 828a 3c3e 9142 ffbd 8822 543e
000000a0: 9ddd a43e 3180 bebd 0c56 133e be0e fa3d
000000b0: b46e 3cbe 29e1 4a3e 437c dd3d aa21 0c3e
000000c0: 25ba ef3d a789 af3d 5b9f 033d 93b3 0cbd
000000d0: 6d01 1bbd 13e6 4a3e 0581 1ebe 7b35 f9bd
000000e0: f93b 62be f1e5 03be f459 ef3c a554 e23c
000000f0: 89fd bf3e 0ec7 623e fc46 f6bd 5476 ccbc
00000100: d07a e8bd 60fb 63bd 1344 553e 43df 313e
00000110: 7c58 31be 136f ccbc 0e42 243e 3bd1 2bbd
-0.18443991 0.11482499 -0.1738103 0.22376752 0.2651148 -0.08365999 0.19147854 0.25386056
0.26056263 0.036927905 -0.01298181 -0.11910078 -0.15230834 0.06532127 0.003420703 0.024741098
-0.2552705 -0.044490337 -0.001996655 -0.2156119 -0.1813694 0.23580514 -0.27466276 -0.21192552
-0.2625728 0.20930749 -0.09748721 -0.1778228 0.30654597 0.0010805385 0.3447057 0.34890646
-0.13188966 0.07468651 0.27126575 0.019846097 0.094420955 0.18412212 -0.124638684 0.20716298
0.32200328 -0.09301794 0.14388293 0.12209843 -0.18401605 0.19812454 0.10814717 0.13684717
0.11705426 0.08571177 0.032134395 -0.034350943 -0.037843157 0.19814329 -0.15478905 -0.12168404
-0.2209319 -0.12880684 0.029217698 0.027628252 0.3749812 0.22146246 -0.12025258 -0.024958767
-0.113515496 -0.05565965 0.2082675 0.17370324 -0.1731891 -0.024955308 0.16040823 -0.041947585

sequential/conv2d_1/Conv2D f4 [16, 3, 3, 8]
00000000: 4c7c d0bc 6ebd 4abd c6d5 a5bd a8a5 603e
00000010: 4a70 1c3d 982c 8dbd a053 463e 6b49 0e3c
00000020: dcf2 4c3e a89e ccbc 9345 0fbe 2a17 a23c
00000030: a6e0 383d 9a15 dbbd f76b 1e3e 6426 743b
00000040: bb4e f93d be55 cdbd a87a ea3d e21f 023e
00000050: b90d c53d 720d 103e cdee 3e3e ccf2 ba3d
00000060: 6113 623e 3ca4 3dbd 1e0b c5bd 441b 4f3e
00000070: 7d62 be3d 5417 263b a156 3ebd da40 313e
00000080: 7826 863d e7f3 4a3c 3978 143e 118f 873d
00000090: cebc 8f3c 092f d7bc a49f 04bd 1776 97bd
000000a0: 1bc5 c9bd 221a 823d 2cc3 16be 8a14 ab3d
000000b0: db42 2d3e b35d e53d 6ad8 3d3d 371c e43d
000000c0: d48c b33d f001 ef39 7eae 0ebe ed40 643e
000000d0: e3f8 303e 0861 4dbd 0968 c33d a613 233e
000000e0: 348a bb3d 50ea 823c 40bd b4bd 6bed 3a3d
000000f0: 20e3 b33d 0a4b 2fbd 446c 29be 3965 cdbd
00000100: b496 16be 8870 9fbb 6371 07be 0b3b 3a3d
00000110: d880 0abd 721d 963d 28e6 bb3c 3906 3e3e
00000120: 0aed 08bd 0d18 133e 5e57 06be 64e2 75bd
00000130: fd2c 403d 3a6b a93b cd20 4b3e 7d53 6e3d
00000140: 3206 4fbd 2ee0 a5bd f8b7 86bd a0fa d03d
00000150: 06d9 cebc c07e 073e d542 b73d d98e ae3c
00000160: 7105 353e 6bb1 0f3e e1ac 543d 0326 603e
00000170: 9dc1 453e 5030 fb3c 2661 a6bd 1712 ae3d
00000180: 14f0 6e3e fea3 1bbe 70ef 95bc 4dd3 453e
00000190: f626 223e b37e 0e3e b352 8f3d 53af c33d
000001a0: f517 a33b 76b9 c23d 89fb 2b3e 1e94 b23d
000001b0: 3d4a 083e 4e3e 973d eeb6 e1bc 7ab0 66bb
000001c0: f19d 023d 04e3 0fbd 89b8 2e3e 270e 6f3d
000001d0: 3390 823d a5f8 9cbc ccc4 5d3e b293 7e3e
000001e0: d7d1 503e 700b a7bc e690 d73d 3e8d 3a3e
000001f0: 1080 6abd 5a42 c03d fcfa d9bd b810 ecbd
00000200: a450 98ba 9e98 ce3d ec4e 62bd 87b1 523d
00000210: 948d fd3d 741c 4bbd c376 d7bd fa52 cd3d
00000220: dbc7 00bd 8898 593d a056 873c 221b 1f3e
00000230: 47b4 4f3e 8ae9 d13b eab2 603e a1b1 923d
00000240: e309 a1bd 12a7 d43d 1ba2 f8bd 8f7d a8bd
00000250: ac6a 01bd a4bc 093e 4857 49bd 0746 4ebe
00000260: 39a3 4a3e c033 2ebc 107a 38bd 7a71 483e
00000270: fc68 9a3d ef20 6ebd 8af3 1abd b691 073e
00000280: 2fb0 8e3c 639b 00be a144 8cbd 4ddd bbbd
00000290: 08d9 813d 1660 0d3d 449e 063e 61cb bb3d
000002a0: 89e5 2d3e 8299 ce3d 79a0 193e 0ff6 633e
000002b0: 0bd1 a33d 416d 4a3e b164 e03c bdf5 f3bd
000002c0: e57f 3a3e bc2d 4dbd 32b7 c8bd 459d 203d
000002d0: ebee fe3d 621b 3cbc 0591 023c 31e6 9c3d
000002e0: 7b82 163e e89b e2bc bcd2 d53d 73cf 4f3e
000002f0: 50ac ab3d ce94 0b3e 20f9 2dbd 7b20 4f3e
00000300: 7fd6 be3d a261 9f3d b3f9 033e 3e88 a9bb
00000310: c36f fa3d 5a54 693e a965 1e3e d0da 56bd
00000320: 0696 163e 4069 523c f0ce e7bc 4011 143e
00000330: 92af 153e 61e0 5f3e b12f 1f3d e3e0 0fbc
00000340: 80a5 f13d 1109 1e3e 93a0 d53d 9a62 5eb9
00000350: de7a b4bc 7d69 d9bb 67cd 113e 9cef 4c3e
00000360: 2662 2fbd ec3e 523d 18cb 653c d686 9c3d
00000370: 42b2 b13c 0828 573e f1a5 833d 1514 463e
00000380: 775a 083c 041c 13bd 6b6f 353d ae7b 583e
00000390: 7f4f 263e 2de6 563e be2a 3e3e 219a 70bc
000003a0: 8537 813d 46d6 18be bf4f ab3d 186b b43d
000003b0: 7781 143a 4adb 353e 166a 4e3e b011 7cbd
000003c0: 6652 0bbc 78ab 0cbe 54fc 59bd 1352 393e
000003d0: 79a0 243e 5f4d 0f3c 4c0b 9f39 ec60 b53d
000003e0: 0ef0 103d fd30 123e 9980 1e3e 8f6a 973d
000003f0: b2ce c8bc 2759 8a3d 7adf 5b3c adc0 82bd
-0.025449894 -0.04949706 -0.08097415 0.21938193 0.038193025 -0.06893271 0.19367838 0.008684496
0.20014518 -0.024977997 -0.13991384 0.019786436 0.045136116 -0.106974795 0.15470873 0.0037254328
0.1217322 -0.1002612 0.11449176 0.12707475 0.09621758 0.14067629 0.18645783 0.09128341
0.22077705 -0.046299204 -0.09621261 0.20225245 0.09296129 0.0025343494 -0.046469335 0.17309895
0.06550306 0.012387252 0.14498986 0.066190846 0.017546084 -0.026267545 -0.032378808 -0.07395571
-0.09852048 0.06352641 -0.1472289 0.08353527 0.16920035 0.11199512 0.046348967 0.11138194
0.08767095 0.00045587076 -0.13933751 0.22290392 0.17282443 -0.050141364 0.095413275 0.15925464
0.091572195 0.01598087 -0.08825159 0.045636576 0.08783555 -0.042796172 -0.16545206 -0.10029072
-0.14705926 -0.0048657097 -0.13226847 0.045466464 -0.03381428 0.07329835 0.022936895 0.18557061
-0.033429183 0.14364643 -0.13119265 -0.060030356 0.046917904 0.005170253 0.19836731 0.05818509
-0.050543018 -0.080993995 -0.06578058 0.10204053 -0.02524997 0.13231945 0.08948294 0.02130835
0.17677857 0.14032523 0.051922683 0.218895 0.19312139 0.030662686 -0.08123998 0.08499544
0.2333377 -0.15199277 -0.01830265 0.19318886 0.15835175 0.1391552 0.069981955 0.09554925
0.004977221 0.0950803 0.16795172 0.08719657 0.1330957 0.073849306 -0.027553048 -0.0035200403
0.031888906 -0.03512861 0.17062582 0.058363106 0.0637516 -0.019161532 0.21657103 0.24861029
0.20392548 -0.020391196 0.10525684 0.18217942 -0.057251036 0.093876556 -0.106435746 -0.11526626
-0.0011620712 0.10087703 -0.055251047 0.051438835 0.123805195 -0.049587682 -0.10520699 0.10025592
-0.031440597 0.05312398 0.016520798 0.15537694 0.20283614 0.006406014 0.2194325 0.07162786
-0.07863214 0.10383429 -0.12140294 -0.082270734 -0.03159587 0.13450867 -0.049155504 -0.20143901
0.19788827 -0.010632455 -0.045038283 0.19574538 0.075395554 -0.058136877 -0.037829913 0.13239178
0.017417995 -0.12559275 -0.068490274 -0.09173069 0.063402236 0.034515463 0.13146311 0.09169651
0.16982092 0.10087873 0.15002622 0.22261833 0.07998856 0.1976824 0.027391763 -0.11912105
0.1821285 -0.050092444 -0.09800567 0.039212484 0.12447914 -0.011481138 0.007969146 0.07661093
0.14698212 -0.027662233 0.10440585 0.2029398 0.083824754 0.13630983 -0.042473912 0.20227234
0.09318256 0.07782294 0.12888221 -0.005173712 0.12228348 0.22786084 0.15468468 -0.05245477
0.14705667 0.012842476 -0.028296918 0.14459705 0.14617756 0.21862938 0.03886384 -0.0087816445
0.11799145 0.15433146 0.10431018 -0.00021208302 -0.022031244 -0.0066348896 0.14238511 0.20013279
-0.04281821 0.05132954 0.014025472 0.076429054 0.021691445 0.21011364 0.06428135 0.19343598
0.00832235 -0.03591539 0.04429571 0.2114093 0.16241263 0.20986243 0.18570992 -0.014685185
0.06309418 -0.14925489 0.0836482 0.08809489 0.0005665044 0.17759433 0.20157656 -0.061540306
-0.008503532 -0.13737285 -0.053219154 0.18097715 0.1607684 0.008746474 0.0003033526 0.08856377
0.035385184 0.142765 0.15478744 0.07393371 -0.024512623 0.06755286 0.01341998 -0.06384406

sequential/conv2d_2/Conv2D f4 [32, 3, 3, 16]
00000000: 33d9 0f3c 67ef 863d ed53 df3d f36f 983d
00000010: fb8a 863d 8ede f2bb fb57 b23d 194b 093e
00000020: 471b 453d f9e2 68bd 9645 aa3b 1ae9 da3d
00000030: f539 91bd 7e69 1f3e 5281 533d 08c4 493d
00000040: 293c 1c3e a889 093e 3941 713c 2f95 cbbc
00000050: d35b 08bd 02aa 35bd d077 963d d0b0 2a3e
00000060: b104 953d 8e29 463e 2c64 92bb a4b6 2f3e
00000070: ec75 fb3b a681 c13c 5f56 3abe c2e7 abbd
00000080: 33a1 9b3d 4d6a 90bd 1e77 e5bc b745 943a
00000090: e450 8fbd 2ca5 5f3d 33d8 35bd 319f d1bc
000000a0: 7f64 d4bd a41c d33d 120c 843d 5cfe 5e3c
000000b0: 4a20 c2bc 2b7c b2bd 0732 1cbe a960 d33d
000000c0: 1b8a 17bd e804 a3bc 96af e0ba ff94 e83d
000000d0: 33c8 013d 2aa5 bb3d e4d1 dbbd 166f ac3c
000000e0: 6ba4 dcbd 6c46 133d d0d1 c23d 8497 f33d
000000f0: abd8 f4bc 4a33 373d eb40 04be b030 803d
00000100: 7423 653c a6c0 d7bd 54f9 6cbd fee7 073e
00000110: 399c b4bd f342 233e b91a 583d ad85 53bd
00000120: 3e0c b0bc dc67 de3d 7835 b03d a834 8b3c
00000130: 79b7 273c ed73 e53b 5b61 acbd 48d4 9b3d
00000140: d57e 10bd 891f b6bd 55ed a4bd 5279 abbd
00000150: 3e4f f2bd f661 4fbd 6add 15be 10ad 2dbd
00000160: 7c7a 903d 118d e13d 934c 87bd b347 e1bd
00000170: 13fc 083d 3b8a 97bd 7d08 9f3b 1597 2c3c
00000180: 94f5 e33d 3a3e 58bd 6bd2 833d 290b 9b3d
00000190: 78c4 94bd 5072 9ebd e132 60bd 871f 18bd
000001a0: ee11 efbd 1833 5bbd 344d 8abd 6d9f 113d
000001b0: 4a9f 513d 4a54 90bd 2f64 993d 2dc7 f43d
000001c0: e456 603c 6bb0 df3c 3283 6abd 442b 01be
000001d0: 8919 8dbd 3627 42bd 7829 6fbd de4a 3b3d
000001e0: 73c4 013e 8e2e ca3d ba91 403e 84cb ab3d
000001f0: e57f f1bd 188b 01be 2767 1c3d 4654 ba3d
00000200: c413 f3bd 7250 0cbd 7cb5 e2bd d9ad 59bc
00000210: 7476 59bd cdbf fb3c afca de3c 2e65 11be
00000220: 60cd 163e 177f e23c 38ae 9abd 875a 03be
00000230: 3a8d e8bd 0444 213d 411a b1bd 535e e93a
00000240: 526c 2cbc c880 bdbc aa6f 26be 9dc8 333d
00000250: bd38 44bd 95c4 87bd 7966 8bbd efd6 c3bd
00000260: f694 87bd 4cd9 933d 24e6 a8bd 5e52 07bc
00000270: e306 0e3d 278b 423c 3bc1 54bd b203 45bd
00000280: 2110 433d 4a51 ccbd 899c dc3c 029b a2bd
00000290: ed2b 94bc cce9 e43d fc48 853d f306 123d
000002a0: 29a2 af3c 03cd dd3d f9e1 84bd 6ae9 80bd
000002b0: 6486 993c 14b2 b83c 6f5a ddbd de01 87bc
000002c0: cde1 13bd 0184 a83d 517c dc3c b485 d5bd
000002d0: 1f21 cabd 4198 c33d 575c 22bd 7afb 58bd
000002e0: 3660 92bd d74b 673c 211e e6bd 9e04 893d
000002f0: 4781 7fbd be46 62bc f64d f4bd a3c2 c93d
00000300: 68f0 25be 3af7 fc3c 67d0 223d 868e a5bd
00000310: a21f 383d e51d 1dbe 53ab b7bc f2a1 8abd
00000320: 8da1 28bd 299f 3fbe 8dfd 9c3d 4eff 723c
00000330: 9433 1cbd b150 e4bd 81f9 063c 32b5 053e
00000340: 1d36 723d a0d6 213c b0be a63d 20ff 49bc
00000350: b3b4 ea3d d189 3fbc e6c6 34bc 122d 96bd
00000360: 7220 0abe a7f2 adbc 1489 80bd 9f15 19be
00000370: aa95 323d 00f3 adbd 3414 f93d 5257 933d
00000380: a5ae a63d d66f ed3d 59ce eb3d 59de bbbd
00000390: 2e24 233d 1718 a0bd 88c6 aa3d 70a3 cdbd
000003a0: a763 be3c 3942 fb3c 7b0e cf3d 5d57 8bbb
000003b0: 981d b5bd 014a edbb be22 d8bc dbfb b13d
000003c0: 98c4 aa3d c8cb 33bc 414f 2abb 4c89 5cbd
000003d0: ed1d 22bc 2820 afbc 707e 853d b9b1 993d
000003e0: e10f d2bc 950f b1bd 254d 59bd dfe3 84bd
000003f0: 4391 95bd 0834 02be 2d9a dd3c b772 cbbc
0.008779812 0.06588631 0.109046794 0.074432276 0.06569477 -0.0074117845 0.08708187 0.13407554
0.048121717 -0.056857083 0.0051962836 0.10688992 -0.070911326 0.15567586 0.051637 0.049259216
0.15257324 0.13431418 0.014725023 -0.02485141 -0.033290695 -0.044351585 0.07347071 0.16669011
0.072762854 0.1935179 -0.004467508 0.17159516 0.0076739695 0.023621392 -0.1819701 -0.08393814
0.07599106 -0.07051525 -0.028010901 0.001131228 -0.069978505 0.05460088 -0.044395637 -0.025588604
-0.103707306 0.10308197 0.06447615 0.013610449 -0.023697037 -0.087150894 -0.15253459 0.10321171
-0.036996942 -0.0198998 -0.0017142172 0.11356544 0.031685065 0.09162362 -0.10733393 0.021049064
-0.10773548 0.03595583 0.09512675 0.11894134 -0.029888472 0.044726647 -0.12915389 0.062592864
0.013985503 -0.10534792 -0.057854965 0.13272092 -0.088188596 0.15943508 0.05275986 -0.051641155
-0.021490213 0.10859653 0.08603948 0.016992882 0.010236614 0.007002345 -0.084170066 0.07608849
-0.035277206 -0.088927336 -0.0805308 -0.083727494 -0.118315205 -0.050630532 -0.14635244 -0.042401373
0.07054612 0.110132344 -0.06606402 -0.11000004 0.03344352 -0.07399412 0.004853307 0.010534068
0.11130825 -0.05279372 0.064366184 0.07570488 -0.07264036 -0.07736647 -0.054736022 -0.03713944
-0.11673342 -0.053515524 -0.067530066 0.03555243 0.0511773 -0.07047327 0.07489812 0.11952052
0.013692591 0.027305802 -0.057254024 -0.12614161 -0.06889636 -0.047400676 -0.058389157 0.045725696
0.12672596 0.09872161 0.1880559 0.08388427 -0.11791972 -0.12650716 0.03818431 0.09098105
-0.11869004 -0.034256406 -0.11069772 -0.013286077 -0.05309148 0.030731106 0.027196256 -0.14198753
0.14726782 0.027648492 -0.07552761 -0.12827502 -0.11355062 0.039371505 -0.08647586 0.00178046
-0.010523872 -0.023132697 -0.16253534 0.04389249 -0.047905672 -0.06629292 -0.068066545 -0.0956248
-0.06620209 0.072191805 -0.08247021 -0.008259384 0.034674536 0.011873997 -0.05194209 -0.048099227
0.047622804 -0.09976442 0.02693011 -0.07939722 -0.018087352 0.11177406 0.06508061 0.03565116
0.021439629 0.108301185 -0.06488413 -0.0629452 0.01874084 0.022545852 -0.108082645 -0.016480383
-0.036104012 0.08228303 0.026914747 -0.104258925 -0.098695986 0.095505245 -0.039638843 -0.0529742
-0.07147257 0.014117203 -0.112362154 0.06690334 -0.062379148 -0.013810812 -0.11928932 0.09851577
-0.16204989 0.030879606 0.03974953 -0.08083825 0.044952042 -0.15343435 -0.022420561 -0.0676917
-0.04116969 -0.18713059 0.076655485 0.014831377 -0.038135126 -0.11148203 0.008238197 0.13057402
0.059133638 0.009877831 0.081418395 -0.012328893 0.11460247 -0.011690573 -0.011033749 -0.07332815
-0.1348894 -0.02123387 -0.062761456 -0.14949654 0.043599762 -0.08493614 0.121620566 0.071943894
0.081387796 0.11593597 0.11513967 -0.09173269 0.039829426 -0.07817095 0.08338648 -0.10040939
0.023240877 0.030671226 0.10110184 -0.004252358 -0.08843535 -0.007241488 -0.026383754 0.08690616
0.083382785 -0.010973878 -0.002598718 -0.053841874 -0.00989483 -0.021377638 0.06518257 0.07504601
-0.025642337 -0.0864555 -0.053052086 -0.064887755 -0.07303097 -0.12715161 0.027051056 -0.024834974
